models/encoding.pt (torch, 319108 bytes, 26 tensors)

weight f4 [16, 1, 3, 3]
00000000: 1ffa 24bf b7ae c13e cbc3 65bf 3f38 4abf
00000010: bbe3 f43e eab8 e5be 5cc9 3dbe 5220 be3f
00000020: fae2 bcbe 0cd1 a63e 7b6e 29bf 5820 ddbb
00000030: e7f2 233e c772 d4bd 878c abbf fd9e 923e
00000040: d514 933f 3afb ee3e fc8a b8be 22f0 dbbe
00000050: 3d64 1d3d 68a0 e23f 028f bcbb 83b2 42be
00000060: f527 53bf a130 083e ac04 b43d 92ad 253f
00000070: ce54 8f3c 0c3d 74bf cbfb a93f 59a9 5f3e
00000080: 053d debe 34c4 793e 7a5b d3be 76a2 8abe
00000090: db76 063e 7ca3 b03e 7254 f3be efd2 c1be
000000a0: 8b45 af3f f0b9 88bf ae3d ecbe 336f 4b3f
000000b0: d8c5 ed3b 3d0b 363e ddb9 acbf c19a 443e
000000c0: b066 3fbe aa1f c13f 905a 56be dff9 1bbd
000000d0: fab5 e53c bb04 41bd 973e 6f3e 6299 603e
000000e0: b48d 16be 8d91 9a3e 9d3f e5bf 0da8 a0bf
000000f0: 1c06 6b3e 0384 9dbf 6c88 febe a01b fa3c
00000100: 6a23 5bbf 5b16 b73f aadd debe aebc 37bf
00000110: 6424 763f bc94 96bd 89d1 1c3d d6fe 9bbd
00000120: e439 443e 19f2 743f bec0 913d 9751 d5be
00000130: 86b6 9ebf fbd1 a43e 9c77 27be 725c 7b3f
00000140: 253f 13bf 53ac c43d ef35 913e 0db0 2a3f
00000150: 68b5 8e3f 578d 3fbf ef4d 36be 9edf af3e
00000160: 4d0b c6be 8770 6ebf 90ff 403e 5fc2 afbf
00000170: 8c48 a9bf 00ca f03e 9d3e bfbf e9bf 093d
00000180: 5c0b eb3e 1670 913e bf57 653d 0244 a9be
00000190: 59a1 8c3e 5f4b 96bf 2730 4e3e 5a99 d1be
000001a0: eb56 1f3f a067 0f3e 8a16 27bf b32f bc3f
000001b0: 7d77 b3be 7566 f03e 81ae 74be ddd5 243f
000001c0: c8ca d2bf 8af5 603e 1512 49bd 949a 793f
000001d0: 3e82 b33d 7493 803d 4883 a0bd f4c0 e0bd
000001e0: 694b 55be 4482 9440 2f28 cb3e 4f10 413d
000001f0: 4d0f e4be 7abe 7dbe 0e8a 68b9 4942 1340
00000200: baf2 0cbf fe16 61be ca5c a9be a8d3 e9be
00000210: 0f24 763c 05fb 4ebf fd65 973e 5d94 73be
00000220: 5316 e2be c4f6 1dbf 5ee8 85be 101e 4a3f
00000230: bfe4 1b3e 3d8e 873f 5169 0a3f 4994 2fbf
-0.64444155 0.3782861 -0.8975188 -0.78992075 0.47829995 -0.4486764 -0.18533844 1.4853613
-0.3689192 0.32581365 -0.66184205 -0.0067482404 0.16010629 -0.103734545 -1.340226 0.28636923
1.1490732 0.46676046 -0.36043537 -0.42956644 0.038425673 1.7705202 -0.0057543525 -0.1901341
-0.82482845 0.132998 0.087899536 0.6471797 0.017496493 -0.9540565 1.3279966 0.21841945
-0.4340593 0.24391252 -0.4128073 -0.27077073 0.13131277 0.3449973 -0.47525364 -0.37856242
1.3693098 -1.0681744 -0.46140808 0.7946655 0.007256251 0.17777725 -1.3494221 0.19199659
-0.18691516 1.5087788 -0.20932984 -0.038080093 0.028040875 -0.047123652 0.2336372 0.21933511
-0.14702493 0.3018917 -1.7910038 -1.2551285 0.2295155 -1.2305912 -0.49713457 0.03053075
-0.8560091 1.4303697 -0.4352849 -0.7177228 0.9614928 -0.073525876 0.038285766 -0.076169655
0.19162709 0.9568191 0.07116841 -0.4166381 -1.2399452 0.32191452 -0.16354221 0.98187935
-0.57518226 0.09603181 0.2836146 0.6667488 1.1149111 -0.7482504 -0.17803167 0.34350294
-0.38680497 -0.93140453 0.1884749 -1.3731192 -1.3225265 0.47029114 -1.4940983 0.033630285
0.45907104 0.28405827 0.055991884 -0.33059698 0.27466848 -1.1741751 0.20135556 -0.4093731
0.62242 0.14004374 -0.65268767 1.4702057 -0.350521 0.4695317 -0.23894693 0.6438883
-1.6468134 0.21968666 -0.04908951 0.9750149 0.08765076 0.062781245 -0.0783754 -0.10974303
-0.20829548 4.6409016 0.39679095 0.047134694 -0.44542924 -0.24779692 -0.00022176674 2.3009207
-0.5505787 -0.21981427 -0.33078605 -0.45669293 0.0150232455 -0.80851775 0.29569998 -0.23787065
-0.44157657 -0.6170466 -0.26153845 0.7895212 0.15223978 1.0590283 0.5406695 -0.6858564

weight f4 [16]
00000000: 224d ab3f f531 823f 05a0 d53f 544f d23f
00000010: 40d5 b53f 2101 c73f 038d c23f 718c f33f
00000020: 63dc a73f f89a 953f 4acb 963f b289 ed3f
00000030: 01cd 723f a546 dd3f fc2f 1540 256d 813f
1.3382914 1.0171496 1.6689459 1.6430459 1.4205704 1.554722 1.5199283 1.9027234
1.3114132 1.1687918 1.1780789 1.8557646 0.9484406 1.7287184 2.3310537 1.0111433

bias f4 [16]
00000000: 038b 3fc0 d151 8b3e 1524 cfbf 6e66 61bf
00000010: d972 f83e 2a53 1c3e bea1 0dc0 37b8 c13e
00000020: 15cb 033f 20b1 063e 2867 3ac0 199a 6dbf
00000030: d273 65bf 7060 2ebf 5121 cfbf f9e1 153f
-2.9928596 0.27210858 -1.6182886 -0.8804692 0.48525122 0.152661 -2.212997 0.37835857
0.51481754 0.13153505 -2.9125462 -0.9281326 -0.8962985 -0.681159 -1.6182042 0.5854793

running_mean f4 [16]
00000000: 9f66 38bf b0bf 023e bfe6 c53d c0d3 4f3e
00000010: 14e6 363e 4de4 0f3d fad2 3ec0 cafd 253e
00000020: 1e1b 2b3d 5502 003e 0608 02c0 f709 823d
00000030: 3166 8b3c 9d58 4140 f901 d23d 2c28 4d3e
-0.7203159 0.12768435 0.09663152 0.2029562 0.17861205 0.035129834 -2.981627 0.16210094
0.041773908 0.1250089 -2.0317397 0.06349557 0.017016502 3.0210335 0.102542825 0.20034856

running_var f4 [16]
00000000: a429 013e 92c0 863d 8b56 c93c 1120 043e
00000010: 7a74 ac3d 98a0 a63c 21ae d43e 706c d93d
00000020: ed24 bd3c a513 9b3d 1069 8f3e c2f6 703d
00000030: a16d 963c 1a29 023f 758a 9b3d 5490 843d
0.12613541 0.065796986 0.0245774 0.12902857 0.08420654 0.020340249 0.415391 0.10616386
0.023088897 0.07572106 0.28009844 0.058829077 0.018362822 0.50843966 0.07594768 0.06472841

weight f4 [64, 16, 2, 2]
00000000: ed91 d13f 10e2 f93d d5aa b23f 7d1e 25bf
00000010: 1490 1b3f 84a1 a43d eb5b 8abe a8bb 40bf
00000020: c96f f0bc 7d1d cb3b 3d07 44be ca6f 2c3f
00000030: 5920 89bd 43f2 62be a862 cebd 12bc 543f
00000040: 2997 573f c6ab f73e b59d 983f 095f 28bd
00000050: 0449 9c3e adee 4bbf 3cd4 833f e305 083f
00000060: 2d64 37bd 11df 213f 146a fd3d 2300 ad3e
00000070: 3d21 173f eb39 abbf 219e 443f 0b82 82bf
00000080: 960a 1c3e 2ab1 833a 7546 833e 62f2 02bf
00000090: b5c0 903c 3841 683e 79ce 813d a352 493e
000000a0: 4ddf 68be 1895 e13c c80f 6f3d 81bb bbbc
000000b0: d90d 4a3f 271c f5be 112c a13e fa9a 043f
000000c0: f38d 523f d542 c13e 6c85 cbbe b345 07bf
000000d0: 3c82 4fbf 2a94 7abf e0ca e93e 9b01 20be
000000e0: 0e1e ee3d 8c78 babe 01e1 063f 98c5 afbe
000000f0: 5b21 623e 534f aa3d 9ad7 ee3e 6776 143c
00000100: 1630 7cbe 7a87 373f d15d 1ebf 46dd a5bf
00000110: 4287 5abc 0b47 1e3e 1c84 9b3d 7f70 f3bb
00000120: b6f9 60be 2675 073e c776 d73d b24d 8abe
00000130: 2cd7 8abe 4f0b 053f bbaa 90bf 0308 ff3d
00000140: c82d 6abe ba4b a43e b322 bbbd dc8d ccbe
00000150: efa8 2cbc 442e 213e d4cf 9e3e c05b 91be
00000160: 1d1d 0e3e b9e0 77bf 90c3 363f 6400 b33e
00000170: 03c3 a63e e61e d33f 2ff9 073e 04a4 913f
00000180: 8950 c73c 8c2f b5bd 9af3 a4be cb03 4ebf
00000190: 58d8 efbf 437c 5fbf cd94 573e 51bc 823f
000001a0: e837 84be 5460 64bd 73c8 31be 5681 c2bf
000001b0: 4e96 863f 8f37 6f3f 6624 6ebf a48d acbf
000001c0: 7095 e3bd 4c9b 243e 0cb8 91bf 26bf 373e
000001d0: 2cd6 74be 2633 ccbe bb0c d2ba 607f d73f
000001e0: 15e3 b1be 3d66 97bf e050 02bf a83d b3bf
000001f0: 881e 8f3d 9273 203e 64e0 4bbc 3188 34bf
00000200: a4de a0bf a4dd 98bf 35c4 22bf 6a8a 84bc
00000210: fc38 c9be c538 593e 113a 00be 0ec7 2f3e
00000220: e4d9 02be 629c 44bf 3fc3 ec3d bcb4 b3bd
00000230: 9d8b 4dbf 2d3d 233f bce5 93bf 8c82 5e3f
00000240: d617 ecbe 120c 94bf 3c4d c6be 0f8a 44bf
00000250: 6860 50be ca44 86b9 bc07 3cbf 5c93 383f
00000260: 5c35 c8bb ceef bbbe 5b74 c8be 787a 19bf
00000270: c0bd 1cbf 4370 e1be ab3d 82bf c2ec ccbe
00000280: 8566 8cbe a0bd 64be 3d80 87bc 7363 29bf
00000290: 13b0 6bbe d3a1 2cbe f83f 25be 6981 bb3e
000002a0: f3ff 90be 3889 b6bd 564a 913e 18c2 d5bc
000002b0: 7ddb 80be d81f b0be 9363 c33e b467 733e
000002c0: 6dd7 0bbf c80f 013f 0936 043f 7f47 fdbd
000002d0: 72f3 143f 995d c7be 698c ec3d f0af dfbe
000002e0: 776b 79bf 5771 f23e eb43 c1be 3245 823e
000002f0: 5fb2 d5be 765a 4fbe 0e12 19be 9402 dd3e
00000300: 22d4 c3bf 3d98 8bbd da29 f63e ca65 633f
00000310: 0b51 e7be efa0 4bbf 9ac3 243f 8958 c63f
00000320: 02ce f23d 977f 37be 0249 123d 1fef 083e
00000330: 1925 50bf 544f 38bf aca7 343e dc5b 61bf
00000340: 5132 73be 7cdb 13bd dd93 55bd 8952 633f
00000350: 8cb2 a5be 22da 293d 6426 0abf 4c6f 213f
00000360: 6bc8 f63d 1553 03bf cdf4 853e 2938 5dbf
00000370: 70ac 0fbf 91e5 32bf d94c b1bc ec08 da3d
00000380: 8331 253f 9781 17bf 81cf 633f ab90 673e
00000390: 4760 1ebf 1af7 803e cb72 6ebe be41 5dbd
000003a0: 417f 6d3f e144 b03f bf22 a5bd e9a5 76bf
000003b0: e38c abbd 14a1 60be a7b5 b93f 6185 173f
000003c0: 9d2b 49bf 4069 86be 4a9e 033e 9173 c53f
000003d0: 0de6 a33d 99b4 f6be 90a9 d83e eb4a 113e
000003e0: 31fa dfbf ef87 67bf 3930 863d 1918 8fbf
000003f0: 9f41 ba3d e2d7 aa3e ea96 8dbe 06a7 723d
1.6372658 0.12201321 1.3958384 -0.64499646 0.6076672 0.08038619 -0.27023253 -0.7528634
-0.029350178 0.0061985836 -0.19143386 0.67358077 -0.06695623 -0.22162728 -0.10077411 0.8309947
0.8421503 0.4837324 1.1923128 -0.041106258 0.30524457 -0.79661065 1.0299144 0.5313398
-0.04477327 0.63231 0.123737484 0.33789167 0.5903509 -1.337705 0.76803786 -1.0195936
0.15238413 0.0010047306 0.25639692 -0.51151097 0.017670015 0.22681129 0.0633821 0.1966043
-0.22741432 0.027536914 0.05836466 -0.022916557 0.7892738 -0.4787304 0.31478932 0.51798975
0.8224785 0.377463 -0.3975023 -0.5284073 -0.81058097 -0.9788233 0.45662594 -0.15625612
0.11626826 -0.36420095 0.5268708 -0.3433044 0.22083037 0.08315911 0.46648866 0.009061432
-0.24627718 0.71691096 -0.618619 -1.2958152 -0.013337912 0.15456788 0.07593557 -0.007429182
-0.21970257 0.13228282 0.10520702 -0.27012402 -0.27117288 0.5197038 -1.1302103 0.124527
-0.22869027 0.32089025 -0.09137478 -0.3995198 -0.010538324 0.15740305 0.31017935 -0.28390312
0.13878293 -0.96827275 0.71392155 0.34961236 0.32570657 1.6493804 0.1327865 1.1378179
0.024330394 -0.088469595 -0.32217103 -0.8047454 -1.8737898 -0.87298983 0.21052857 1.021372
-0.25823903 -0.05575593 -0.17361622 -1.519572 1.0514619 0.9344415 -0.9302429 -1.3480725
-0.11112487 0.16074866 -1.1384292 0.17944011 -0.23909825 -0.39882773 -0.0016025522 1.6835747
-0.34743562 -1.1828076 -0.50904655 -1.4003191 0.06988245 0.15669087 -0.012443636 -0.7052031
-1.2567945 -1.1942639 -0.6358064 -0.016179282 -0.39301288 0.21213062 -0.1252215 0.17165777
-0.12778431 -0.7680112 0.11560678 -0.08774707 -0.8029116 0.6376522 -1.1554484 0.8691795
-0.46111935 -1.1566184 -0.387308 -0.7677316 -0.20349276 -0.00025609724 -0.734493 0.7209985
-0.0061098766 -0.36706394 -0.39151272 -0.599525 -0.61227036 -0.4403096 -1.017507 -0.40024382
-0.27421966 -0.22337961 -0.016540641 -0.6616737 -0.23016386 -0.16858606 -0.16137683 0.3662217
-0.28320274 -0.08912891 0.28377026 -0.026093528 -0.25167456 -0.34399295 0.38161907 0.23770028
-0.5462559 0.50414705 0.5164495 -0.123671524 0.5818397 -0.38938597 0.115502186 -0.43688917
-0.97429603 0.47352096 -0.3774713 0.25443417 -0.4173765 -0.20249352 -0.14948294 0.4316603
-1.5299113 -0.068161465 0.48078805 0.8882719 -0.45179018 -0.7954244 0.64360964 1.5495769
0.11855699 -0.17919765 0.035714157 0.13372467 -0.81306607 -0.71996045 0.17642087 -0.8803079
-0.23749663 -0.03609799 -0.052142967 0.88797814 -0.32362783 0.041467793 -0.5396483 0.6306045
0.120499454 -0.5129865 0.2616333 -0.8641382 -0.56122494 -0.6988154 -0.02164309 0.10646233
0.64528674 -0.59182113 0.889885 0.2261378 -0.6186566 0.25188524 -0.23285978 -0.054017775
0.927723 1.377102 -0.08063268 -0.9634691 -0.083764814 -0.21936446 1.4508561 0.59187895
-0.78582174 -0.26252174 0.12853351 1.5425893 0.08002863 -0.4818466 0.42316866 0.14188735
-1.7498227 -0.90441793 0.065521665 -1.1179229 0.090945475 0.3336783 -0.276542 0.059241317

weight f4 [64]
00000000: 5ab3 e23f aca8 2b40 0928 e53f 8bf4 2140
00000010: f94d 0e40 095a 8a3f d1fb 0940 e5ea d03f
00000020: 23f3 bd3f acf2 7a3e 5a3f 0740 42f4 0f40
00000030: 2e1c 0440 ea45 903e e6a5 8f3f 2dad 2640
00000040: e1a2 1140 e32d 1540 7569 b53f f975 ba3c
00000050: 4c4b cc3f 8654 fe3f b02f 1e40 dc01 1940
00000060: 708e 9d3f 2fc9 1440 4029 cb3e abb4 863f
00000070: 997f 8e3d 672f 0740 3110 b33f 3db5 0540
00000080: f10d c63f 6185 863d 62c7 e83f a7cf e83f
00000090: 4999 b13f 1db6 c83f 084b 823f 926e ea3f
000000a0: 1269 e83f 91b8 a33f df86 0540 5531 1a40
000000b0: 71c3 fc3f 80c3 dc3f d023 2f3f a62c 763f
000000c0: 4c06 2740 398f 983f b32c a73f 42d8 ab3f
000000d0: 6f8d c53f 70eb 1240 1c09 2e3f cf11 6f3f
000000e0: 294c c83f 4eb9 a73e 0384 de3f 7532 0440
000000f0: 9ff1 1b40 9c26 f33f 2012 0840 a169 863f
1.7710984 2.68217 1.7902843 2.5305507 2.223509 1.0808727 2.1559947 1.6321684
1.4839824 0.24506634 2.1132417 2.2492833 2.06422 0.2817834 1.1222503 2.6043198
2.2755663 2.3309257 1.4172808 0.022761332 1.5960479 1.9869545 2.4716606 2.3907385
1.2309093 2.3247793 0.3967991 1.0523885 0.06957931 2.1122682 1.3989316 2.089187
1.5473005 0.06568409 1.8185847 1.818837 1.3874904 1.5680577 1.0179148 1.8314993
1.8157065 1.27907 2.0863569 2.409261 1.9747144 1.7247162 0.6841402 0.9616188
2.6097593 1.1918708 1.3060516 1.3425372 1.5433787 2.29562 0.6798265 0.9338655
1.5648242 0.32758564 1.7384037 2.0655797 2.4366224 1.8996158 2.1261063 1.0500985

bias f4 [64]
00000000: 5f8b 62c0 4fb4 06c0 f265 a23e 88bd 5dc0
00000010: 0e95 0ac0 507d babf 1e24 29c0 cb9c 8bbf
00000020: e051 0abf 3ce0 573d 8516 a7bf 9c90 e3bf
00000030: 2f70 d9be e475 e6bc 18e0 9cbf b947 f4bf
00000040: c87e 05c0 fde4 c8bf 755e 47c0 00a8 6e3e
00000050: 2d07 75c0 5009 1dc0 88b4 0fc0 a916 0dc0
00000060: df2a 4ec0 d9fe 0dc0 6656 c63e cfe9 a2bf
00000070: 8648 c43e ffb8 3fc0 a661 40c0 1ce4 38c0
00000080: addc 06c0 b119 0fbe 3432 7fbe c5aa 61c0
00000090: 172a b9bf 28cb 3bc0 73cc 70bf 2946 bcbf
000000a0: 5432 bbbf dff7 333e 8475 3cc0 4c9f f7bf
000000b0: 86d6 dfbe 465e 90c0 b554 46bf 0e26 8d37
000000c0: a3f4 d3bf 0a50 10bd 9fcd 94bf d0bc 5cbf
000000d0: eada 853e 240c 02c0 ecee 4a3e 8047 d0bf
000000e0: c984 19c0 c035 413e c2e2 d4bf 7bbc 323f
000000f0: 63a7 19c0 29d1 d1bf e339 ecbf 5bb0 263e
-3.5397565 -2.1047552 0.31718403 -3.464693 -2.1653476 -1.4569492 -2.6428294 -1.0907224
-0.5403118 0.05270408 -1.3053747 -1.7778506 -0.42468402 -0.028132387 -1.2255888 -1.9084388
-2.085863 -1.5694882 -3.1151402 0.23306274 -3.828563 -2.4536934 -2.2453938 -2.204508
-3.2213666 -2.2186797 0.38737792 -1.2727603 0.3833658 -2.9956663 -3.00596 -2.8889227
-2.107219 -0.13974644 -0.24921495 -3.526048 -1.446597 -2.9342747 -0.94061965 -1.4708911
-1.4624734 0.17575024 -2.9446726 -1.9345489 -0.43718356 -4.511508 -0.77473 1.682623e-05
-1.6559032 -0.03523258 -1.162525 -0.86225605 0.2614358 -2.031991 0.19817704 -1.627182
-2.3987296 0.1886816 -1.6631701 0.6981885 -2.4008415 -1.6391956 -1.8455166 0.16278212

running_mean f4 [64]
00000000: 7900 8ec0 e96d 1e41 f0ff 5e40 99c8 3e40
00000010: 57a3 dd3f 9d06 5b40 3e03 ebbf 4bc9 7540
00000020: 61dc 5441 b221 b73f 8d12 8d40 753c 23c1
00000030: 1823 e440 f339 6340 92b3 8fc0 177c 1341
00000040: 9145 7a40 6b48 1241 b45f 523e bc2f 33bf
00000050: c2e0 c5c0 0f0e 6140 70fb 2e41 efb8 eb3f
00000060: 5642 55c1 309e 17c1 64c3 3fc0 01f2 34c0
00000070: 773c ae3e eb92 46c1 c68e 1ec1 096c ea40
00000080: 9038 b440 8664 6640 116f 4540 14c6 41c0
00000090: 7009 3241 cb3f 24c1 5851 22c0 956f 983f
000000a0: d5a2 2a41 9114 6740 1ed3 81c0 0f69 e040
000000b0: 532d 0142 53a8 70c0 1568 543f bec2 983f
000000c0: 4211 2a41 612f 933f 1031 0e40 d645 7c41
000000d0: 5e1b dc40 29c1 d2bf cae9 6b40 8110 51c0
000000e0: 29a8 04c1 06c4 dcbf 11e7 3840 5c88 0541
000000f0: 9e43 1241 8d72 8640 b3eb 4841 1bcf ac3f
-4.4375577 9.901834 3.4843712 2.9809935 1.7315472 3.4222786 -1.8360364 3.840411
13.303803 1.4307158 4.4085145 -10.20226 7.129284 3.550412 -4.49067 9.217795
3.910496 9.14268 0.2054432 -0.6999471 -6.1836863 3.516483 10.936386 1.8415812
-13.328695 -9.47612 -2.9963007 -2.8272707 0.34030506 -12.410869 -9.909857 7.325688
5.6319046 3.5998855 3.084904 -3.0277147 11.127304 -10.265574 -2.5362148 1.1909052
10.664754 3.6106303 -4.057021 7.0128245 32.294262 -3.7602737 0.82971317 1.1934431
10.629213 1.1498834 2.2217445 15.76705 6.8783407 -1.6465198 3.6861444 -3.2666323
-8.291055 -1.7247322 2.8891032 8.345791 9.141508 4.2014832 12.557544 1.3500704

running_var f4 [64]
00000000: 07cf 4a42 bf5c 9c42 fb27 8941 9987 d141
00000010: f5c8 c942 6801 6241 80e1 8942 1e0f 0542
00000020: 0312 bc41 2aa8 9341 f69e 5142 6c62 0943
00000030: ee28 1d42 e62e 5841 bf38 2442 54bf ae42
00000040: 10f8 5d42 9d8b 4e42 60af aa41 042b 0041
00000050: ec59 c141 7494 7142 8ee4 8242 e93e 0042
00000060: ef0d d941 4bb9 b942 c82d ff40 2a01 a642
00000070: 3618 be40 946b 0943 717f 1e42 1299 6542
00000080: 1ffc 8c41 61f4 3b42 dde8 fb42 02fe 9042
00000090: 4701 3042 b3e4 b642 e9fd 8141 667f 9f42
000000a0: 3248 ee41 d498 b441 cb4e ab42 1ac5 b642
000000b0: 76e3 2843 b0f3 a441 bd64 7642 7be4 3142
000000c0: 8f04 5042 d20c 6b42 5f18 9d41 fc44 9542
000000d0: 21f8 e441 7b65 b942 4e95 7741 0c5d 0d43
000000e0: 5fb7 0043 ac6d 7c41 2f7c 8042 b21d bd42
000000f0: 617f 2442 3229 6242 fbe2 7a42 0c31 b642
50.702175 78.181145 17.144522 26.19121 100.892494 14.125343 68.94043 33.264763
23.508795 18.457111 52.405235 137.38446 39.28997 13.51145 41.055416 87.37369
55.49225 51.63634 21.335632 8.010502 24.168907 60.394974 65.446396 32.061436
27.131804 92.8619 7.9743385 83.00227 5.9404554 137.42023 39.624454 57.399483
17.623106 46.98865 125.95481 72.49611 44.001247 91.44668 16.24898 79.748825
29.785252 22.574623 85.65389 91.384964 168.88852 20.618988 61.598377 44.473125
52.00445 58.76252 19.6369 74.634735 28.621157 92.698204 15.473951 141.36346
128.7163 15.776775 64.242546 94.558 41.124393 56.54023 62.72166 91.095795

weight f4 [128, 64, 2, 2]
00000000: 96e6 e53d e712 d3bf 0960 ad3e 7e75 8fbe
00000010: 8a75 5cbf cf69 ea3e 781a 08bd bacf e1be
00000020: 385b 44be fcb2 f73d f76f 6f3d 542a 29bf
00000030: ac56 153f 345d a9be ee54 3bbf 2c51 973e
00000040: 0859 a43d 3900 3c3f c6c9 743f a12e 72be
00000050: 5822 5f3f 9c5f 963d 3bf1 16be de92 6dbb
00000060: 5d5b 693f 14a7 09bf ecae 14bf 7d19 15bf
00000070: 2310 82be cd9a ae3e f47d 773d f5ae 9fbd
00000080: 3fad 053f c9c7 0e3f 97d1 a8be ed66 05bf
00000090: 0ccc 1e3e 434f cb3e f62d a5bd 27ce 36be
000000a0: 526d 12bf 9e99 8fbe 3f7f 36bf ac7f 183f
000000b0: e8a2 023f 3951 fdbe c213 66bf 924d 843e
000000c0: 1558 8abd 47b9 0dc0 f2fd 56bf c389 f9bd
000000d0: f998 a23e 29dc 3abf 03ba c5be 3fc8 bbbe
000000e0: d546 cebe b3af 6e3f 0450 42bf 2b88 52bf
000000f0: ae01 5b3f 9c1e 89be ddb2 cb3e 7a5f 0640
00000100: 03ea d4bd dbcd 783d 83d5 eb3e c936 1b3f
00000110: 8086 7a3e b207 23bf 54b3 bebe 8dab 0abf
00000120: e2f2 2f3e 92ff 80bf 8d3a bcbd 0a1b ddbc
00000130: e840 d03b 3533 843e b1e3 063e e834 87be
00000140: 690c 75bf e10d a73f f30a 88bf 6bae 4cbf
00000150: 56da 073f 32ea 263f d22d 10bf 122c 1a3f
00000160: 3c7d f03e 17fd 8c3e 548f 25bf 3e62 72bf
00000170: ade7 33bf cfb6 753e 0e99 21be ea0a ab3e
00000180: 31ee a0bd 31ea 073e 8405 943e 676a 033f
00000190: 0d4e b33e 50ea 1ebe cda4 a53d be4f 8a3f
000001a0: 19e0 2c3f 3b56 72be 0ade 1abd 7455 6b3e
000001b0: a67c 71bf 8b3b 8cbd 561a 32be 85c9 6d3d
000001c0: 1bdf 023f 40bc 373e 22d5 36be 9594 12be
000001d0: c049 7abf 5c93 0b3f 76b9 1dbf 7a61 663e
000001e0: db6d dfbe f535 65bf e3a5 23bf c6bc bcbe
000001f0: b3bc 0bbf 8278 053f 078b bf3e f133 ac3d
00000200: df8c 42be a356 1f3f dce8 f4bc f342 463f
00000210: 8059 22bf 74f1 b63e e127 e1be c0e6 073f
00000220: 8dc5 3ebf a9b3 e63e 7530 e73e 65ed 2c3f
00000230: 5eba d0bf 1611 023f 524e 56bf fbea 973e
00000240: 14c3 013f 5e3b f5be 235b f53e c8cf 17bf
00000250: b557 85bc 8681 98bf 5421 b8be 75bb d13d
00000260: 8006 0a3d d908 3d3f ba12 3e3f 19a7 99be
00000270: 6bd5 9bbe 3f3c a13f 9304 b0bf 8af7 4bbe
00000280: b0e0 efbe e9fc 89bf d628 193e 1198 063f
00000290: 0b9f 70bc 554a 11bf 1af3 7bbe 7018 24bd
000002a0: 851b e0be 97cf 6cbe 27b4 f73e f9a1 88bd
000002b0: 33b2 a1be 2d3d 8ebd d32d 31be e74f 863f
000002c0: 549e fbbe 1d8e b43d 85a8 a1be 67ca f2be
000002d0: 2c85 ce3c 4fc1 2e3f f12e 05be 70ca da3e
000002e0: 8f97 eebc 39d9 383f c201 e93d 9417 8cbf
000002f0: 564c e83e 16a7 443f 4d1a 42bf 60a1 2f3d
00000300: 70f8 18bf 1a1a 513f 8e57 75be 4b1c 81be
00000310: 38ec 0abe de46 ae3e e736 a2bc 46e2 debe
00000320: fd4e e93c cd9c 1bc0 ea57 4abf 2dc2 b9bf
00000330: 435d 893f 5628 e9bd 594d 80be eb38 f63d
00000340: 80f9 9c3e 0c37 1f3f a1e7 8d3e 47d1 5ebf
00000350: 433a 24be d48a 0e3f a6a8 85bf fc13 97bf
00000360: 20aa 043f 4df9 48bf 5d85 a4be 8500 0ebf
00000370: e888 a1be 347c 613e afbb 20bc a862 f83e
00000380: 66e6 623e b0fc a2bf cf90 64be 7b15 db3d
00000390: 8fca 09be fa33 d1be 4ddb 003f 1260 81be
000003a0: 98b3 eebe d3e1 0c3e 6984 933e a43f da3e
000003b0: 5b78 eabf 75e9 0c3f 3727 8ebf 574b 3d3f
000003c0: 6bb5 d53e 558d 663e 4b8b 043c c029 85be
000003d0: 761e 92bd 8efe 87bd 8d8a d8bb 7ecf d8bc
000003e0: eceb 9a3f 3905 dfbf c510 a63d cdfb ae3e
000003f0: e106 243f 9dd8 1dc0 9f96 d33e 1cd3 d33e
0.112256214 -1.6490144 0.33862332 -0.28019327 -0.8611685 0.4578385 -0.033228368 -0.44103795
-0.19175422 0.120946854 0.058456387 -0.6608021 0.58335376 -0.3307892 -0.7317647 0.29554117
0.08024794 0.7343784 0.9562038 -0.236506 0.8716178 0.07342455 -0.1474046 -0.003625087
0.91155034 -0.53770566 -0.5807941 -0.5824202 -0.25402936 0.3410248 0.060422853 -0.07797042
0.5221748 0.557736 -0.32972404 -0.5211018 0.15507525 0.3970891 -0.08065407 -0.17852078
-0.5719806 -0.28046888 -0.7128791 0.5956981 0.51029825 -0.4947603 -0.898739 0.2584043
-0.067550816 -2.2144334 -0.8398124 -0.12184479 0.31757334 -0.7299219 -0.38618478 -0.36676213
-0.40288416 0.93236846 -0.75903344 -0.82239026 0.8554944 -0.26781166 0.397849 2.0995774
-0.10396197 0.060743194 0.46061334 0.6063047 0.2446537 -0.6368362 -0.37246192 -0.54168016
0.17182496 -1.0077994 -0.09190855 -0.026990432 0.0063553937 0.25820318 0.13172795 -0.26407552
-0.9572206 1.305111 -1.0628341 -0.7995364 0.5306753 0.65201104 -0.56319916 0.60223496
0.46970546 0.27536842 -0.64671826 -0.94681156 -0.70275384 0.23995517 -0.15781042 0.33406764
-0.078579314 0.1327293 0.28910458 0.5133423 0.35020486 -0.1551907 0.08088074 1.0805585
0.67529446 -0.23665707 -0.03780941 0.22981817 -0.94330823 -0.068472944 -0.17392859 0.058053512
0.5112168 0.17942905 -0.17854741 -0.14314492 -0.97768784 0.5452173 -0.61611116 0.22498122
-0.436385 -0.89535457 -0.63925 -0.36862773 -0.5458481 0.52137005 0.37410757 0.084083445
-0.1899905 0.6224157 -0.029896192 0.77445906 -0.63417816 0.3573109 -0.43975738 0.5308647
-0.7452019 0.45058945 0.45154157 0.67549735 -1.6306875 0.5080732 -0.8371326 0.29671463
0.5068829 -0.47896856 0.47921094 -0.59301424 -0.016277174 -1.1914527 -0.35962927 0.10240833
0.033697605 0.73841625 0.74247324 -0.30010298 -0.30436262 1.2596511 -1.3751396 -0.19918647
-0.4685111 -1.0780307 0.14956984 0.52575785 -0.014686356 -0.56754047 -0.24604455 -0.040062368
-0.43770996 -0.23126064 0.48379633 -0.06671519 -0.31581268 -0.06945262 -0.17302637 1.0493134
-0.49144232 0.088161685 -0.31573883 -0.47420046 0.025209986 0.68263716 -0.13006188 0.42732573
-0.029125003 0.72206455 0.113772884 -1.0944695 0.4537074 0.7681745 -0.7582138 0.04287851
-0.59754086 0.8168045 -0.2395918 -0.25216898 -0.13566673 0.34038442 -0.01980157 -0.43532008
0.028480047 -2.4314454 -0.79040396 -1.4512383 1.0731586 -0.113846466 -0.25059012 0.12022575
0.30659103 0.6219337 0.2771578 -0.8703808 -0.1603785 0.55680585 -1.0442092 -1.1802974
0.5182209 -0.785054 -0.32132998 -0.5546954 -0.31549764 0.22020036 -0.009810372 0.4851277
0.22158203 -1.2733364 -0.22320865 0.106974564 -0.13456176 -0.40859967 0.50334626 -0.25268608
-0.46621394 0.1375802 0.28811958 0.4262668 -1.831798 0.5504373 -1.1105717 0.73943084
0.41739973 0.22514851 0.008089851 -0.26008415 -0.07134716 -0.06640349 -0.0066083134 -0.026466127
1.2103248 -1.7423469 0.08108667 0.34176484 0.64072996 -2.466346 0.41325852 0.41372

weight f4 [128]
00000000: b4ba 193f ade1 d13f 4799 cc3e 74cc b43f
00000010: 610e 3e3f 3e11 f43e 9806 0a3f 802c aa3f
00000020: 80e7 e43e 675b c03e d7b7 3b3f c7f1 bb3e
00000030: 1d02 d73e 7cc9 393f 2b93 373f db32 023f
00000040: 8520 5b3f 9d42 ee3e 18f8 c93e 0f5e 1d3f
00000050: 0822 2e3f ef4e cc3f 12c2 133f 351f 233f
00000060: 5d09 353f 306e 483f 0709 283f 9d5d 4b3f
00000070: 328a ff3e 4d09 fe3e 5f5a 083f c44a 0b3f
00000080: a8c0 203f 87a5 273f f61d 203f d078 453f
00000090: e7a5 033f e3ae 2e3f 332a db3e b293 d13e
000000a0: 75d8 b83f e106 363f 9fb5 f33e 033a 303f
000000b0: bf64 353f 1351 d63f 103d 1d3f 0a2f 0540
000000c0: 7b13 043f 9808 013f 0bfb 593f 8b5f 8c3f
000000d0: 0508 683f 224b c93e 75e3 b03e 35d5 cd3e
000000e0: 6374 393f 4d3a e13e ff94 083f 57c9 903f
000000f0: 6a16 db3f c9e4 993e 7363 e53e 4b20 c33f
00000100: 6ed2 043f 3ccc 443f c1e5 d53f 07af 0f3f
00000110: e762 163f c15e 843f cb48 ca3f 397f 473f
00000120: e728 4e3f 25ad 153f 4d83 903f 1225 1b3f
00000130: d5f3 023f b37f 093f 46c9 423f d7c8 cd3e
00000140: 2c21 0c3f 740b e03e b308 a13e 0ded 8f3f
00000150: 1e75 8a3f da4b 2d3f 3345 b33f 2340 383f
00000160: ea49 493f 059e 643f b276 443f 2ae5 e63e
00000170: b372 123f 7d09 4a3f 30bf 9c3f 893b de3e
00000180: e77b f23e 2abe 313f 6dca 9c3f a645 343f
00000190: 5393 a43f 612f cc3e 500b 2d3f aff3 ac3f
000001a0: bdb7 313f ba8a 9a3f 5aa7 ed3e afd7 0a3f
000001b0: 81fc 073f 02d5 e43e 375d e53e 7125 0b3f
000001c0: 0111 ec3e f1c8 e23e ca66 253f 06e7 e63e
000001d0: a0cc da3f c39e 013f ad40 973f c0fb ec3e
000001e0: 2942 393f 81b2 563f af97 e33e d4d3 723f
000001f0: 6b9d 0a3f 4642 a93f 932a 033f 772f bd3f
0.6005051 1.6396996 0.3996069 1.4124894 0.7424069 0.47669405 0.5391631 1.329483
0.4470787 0.37569734 0.7332739 0.367079 0.419938 0.72573066 0.71708935 0.5085885
0.85596496 0.46535197 0.39447093 0.6147165 0.6802068 1.5961589 0.57718 0.63719493
0.7071741 0.7829313 0.65638775 0.7943972 0.49910122 0.4961647 0.53262895 0.5441096
0.6279397 0.6548695 0.62545717 0.7713747 0.5142502 0.68235606 0.42805633 0.40932995
1.4441057 0.71104246 0.47599503 0.6883852 0.7085685 1.6743492 0.614213 2.080996
0.51592225 0.5040374 0.85148686 1.0966657 0.90637237 0.39315134 0.34548536 0.40201727
0.7244322 0.43989792 0.5335235 1.1311444 1.7116215 0.30057362 0.44802436 1.524423
0.5188359 0.76874137 1.671074 0.56126446 0.58744663 1.0341417 1.5803465 0.779285
0.8053116 0.5846732 1.129007 0.6060344 0.5115331 0.5371048 0.7608837 0.4019229
0.54738116 0.43758738 0.3145195 1.1244217 1.0816991 0.67693865 1.4005493 0.71972865
0.7862841 0.8930362 0.76743615 0.45096713 0.5720627 0.7892073 1.2245846 0.43404797
0.47360155 0.6943079 1.2249275 0.70418775 1.285746 0.39879897 0.67595387 1.3511866
0.6942099 1.2073586 0.46416742 0.5423536 0.53119665 0.44693762 0.4479768 0.54354006
0.46106723 0.4429393 0.6460997 0.45098132 1.7093697 0.50632876 1.1816612 0.4628582
0.7236658 0.83866125 0.44451663 0.94854474 0.5414645 1.322335 0.5123684 1.478011

bias f4 [128]
00000000: a2a9 12bf 08dc 11bf 2dea 98be 516e 39bf
00000010: a702 4ebf 31ab 8dbe d4a2 14bf d18d 24bf
00000020: 9a12 9ebe 8b6d 7ec0 554f 84bf 6c09 79c0
00000030: fe55 48be d288 92bf 22f8 26bf fcf0 e0be
00000040: 29ff 8ebf a5ea 4cbe 1680 6ac0 bb8a 51bf
00000050: 85aa 36bf 8b41 d1bf 75af 7fbf baec 62bf
00000060: 88b9 9dbf 3fbf 60bf d2f5 f5be 891e 93bf
00000070: b166 d1be 032a 7abe 274d a8be 0d14 11bd
00000080: 2cab 60bf 6a9a ebbe 9d87 acbf 0c5b febe
00000090: b42a 6ec0 5004 12bf a8aa 88be a6e2 70c0
000000a0: a2f6 7dbf b966 26bf 0869 b8be 82a5 a6bf
000000b0: ae43 7bbf 0716 0cbf d351 0bbf f00a b6bf
000000c0: 4276 00bf 54b8 cabe 6b10 6fbf 5be9 dcbe
000000d0: f2d8 38c0 dff7 79c0 1123 61c0 9e5d 7fc0
000000e0: 56f4 3cbf f36f acbe 31c2 54bf 8883 30bf
000000f0: 41ad 8ebf 143d 31c0 d4b1 93be 8d71 12bf
00000100: 62c6 f9be b8f7 b4bf be6e 92bf 4896 55bf
00000110: 6d6a 57bf 6d4e 01c0 99f1 60bf d2cb abbf
00000120: 4204 20c0 7e24 52bf 80a7 f0be 82bd 46bd
00000130: 53d2 fabe b65a 94be ed4a 40bf d992 76c0
00000140: 12be a3bf c77c a4be 86e9 3fc0 2691 cbbe
00000150: d525 9bbe 6bab 9dbf 4b06 fbbe c2b5 9abf
00000160: 6ac5 95bf ecd9 10c0 b673 00c0 23fe 93be
00000170: aa86 f2be 6ab8 7bbf b468 ebbe 58bc 64c0
00000180: fb2b abbe c636 1fbf 60f0 25bf fc64 d2bf
00000190: 026f 97be 2f5a 5cbe 8ac6 0fbf 23b1 7ebf
000001a0: b185 84bd af69 d0be 4ddc 1dbf 1945 e1be
000001b0: 67f9 22bf 278f d9be 7e70 4bbe 4883 1dbf
000001c0: fb3f 76c0 2f73 95be 07cf 96bf 3248 9dbe
000001d0: 7ec7 82bf 8c0e 93be d5f0 1fbf c7ee abbe
000001e0: 6b7a b1bf 3076 a7bb d65f a6be 3d84 59c0
000001f0: ddf4 ebbe b333 c4be bc6e 4abf 2661 50bf
-0.5729009 -0.56976366 -0.29866162 -0.72433954 -0.804728 -0.2766967 -0.58060956 -0.64278895
-0.30873567 -3.975436 -1.033671 -3.8912 -0.19564053 -1.1448004 -0.6522237 -0.43933856
-1.1171619 -0.20011385 -3.6640677 -0.8185231 -0.7135394 -1.6348127 -0.998771 -0.88642466
-1.2322245 -0.8779182 -0.4803911 -1.1493694 -0.4089866 -0.24430089 -0.32871363 -0.035419513
-0.8776119 -0.46016246 -1.3478886 -0.49678838 -3.7213564 -0.5703783 -0.266927 -3.7638335
-0.99204457 -0.6500049 -0.36017632 -1.3019259 -0.98150146 -0.5472111 -0.5442173 -1.4222088
-0.5018045 -0.39593756 -0.93384427 -0.43146786 -2.8882413 -3.9057539 -3.5177653 -3.990089
-0.7381033 -0.3367916 -0.8310881 -0.689507 -1.1146623 -2.769353 -0.2884661 -0.57204515
-0.48784167 -1.4138098 -1.1440046 -0.83432436 -0.8414677 -2.0204117 -0.8786865 -1.3421576
-2.5002599 -0.8208693 -0.47002792 -0.048520572 -0.4898859 -0.28975457 -0.7511433 -3.8527129
-1.279238 -0.32126448 -2.9986281 -0.39759177 -0.303023 -1.2317938 -0.4902824 -1.2086718
-1.1700871 -2.263301 -2.0070624 -0.28904828 -0.47368366 -0.9832827 -0.4597832 -3.5739956
-0.33431992 -0.6219295 -0.6481991 -1.6437068 -0.2957688 -0.21518777 -0.5616232 -0.9948904
-0.06470812 -0.4070563 -0.6166428 -0.4399803 -0.6366181 -0.4249203 -0.19867131 -0.61528444
-3.847655 -0.2918944 -1.178193 -0.30719143 -1.021713 -0.28722036 -0.62476856 -0.3358061
-1.3865484 -0.0051105246 -0.32494992 -3.3986962 -0.46085253 -0.38320693 -0.7907522 -0.81398237

running_mean f4 [128]
00000000: e975 6141 17b5 4c42 e03e 5ac1 056c bd41
00000010: d00e 8b41 aa9a 8341 ac69 20c1 3a03 df41
00000020: 00a1 48bf 8b90 f0c1 4997 37c1 d9d1 62c1
00000030: e162 bcbd 92ad bec1 63ab 1141 4a69 c540
00000040: 3987 6f41 b396 8441 5ad8 6dc1 09fd a3c0
00000050: 5590 cb40 c740 8d41 2f34 adc0 6e79 a93f
00000060: f079 78c1 5fd5 9d40 feda f841 7562 953f
00000070: f4fa 4a41 d185 0842 b98e 6641 a9a3 7841
00000080: ba37 83c1 ca20 e941 7f7e 4ac1 8f5a 4142
00000090: 0c4a 84c1 f6ba 4341 e9af 9840 a5cf 93c1
000000a0: 81f9 5b42 9a23 5c41 03a0 7841 06ba 0d40
000000b0: 1fdf 20c2 c3df 2542 82aa 2c41 ba0a 9ac0
000000c0: a253 53bf ab08 1e41 2c4e ca40 2ab0 5142
000000d0: 6e3c 3b40 7487 7fc1 23fd 97c1 5c19 80c1
000000e0: 66df 4d41 edf3 99c0 8df4 5c40 6377 8842
000000f0: 0259 2042 c958 4bc1 3c32 8d40 4bc4 9142
00000100: 75b1 1741 eafb 5740 6105 f241 7df6 b2c1
00000110: 5306 a7c1 739f 5340 7f6b 3b42 7622 9540
00000120: 4d74 bf3f 9d08 bec1 51b6 1e42 3c6d 0842
00000130: 9639 c4c1 a9bb de40 7a8c 8f41 cd0d 36c1
00000140: f1f0 a940 caa1 0bc1 edbf 80c1 100e ff41
00000150: 6f70 0142 1c5f 6ac1 707f 4b42 d466 a340
00000160: 304b e0c1 9796 16c0 a6b7 6940 5481 87bf
00000170: dcb3 8541 d281 2141 839e 3642 7339 88c1
00000180: 3f79 aa40 efa5 8541 cfb1 2e42 5216 d4c0
00000190: 7312 8a42 42cb 4841 827e 7441 2185 9541
000001a0: 12bb 4142 1735 3e42 62ef 99c1 5c12 6740
000001b0: 9d8d 4040 d963 80bf 0737 9041 e578 9dc1
000001c0: c8b0 9ac1 5d8a f641 ee8a 5dc1 7f29 2f41
000001d0: e02f d941 4ed4 4241 6627 0242 1435 5c40
000001e0: b364 1240 e945 3642 8fe3 c4c0 ebe9 13c0
000001f0: 8a6f 9b3e 230f 4042 23a6 07c1 66dc d541
14.091287 51.176846 -13.64035 23.677744 17.382233 16.45052 -10.025799 27.876575
-0.78370667 -30.070578 -11.474435 -14.176232 -0.09198547 -23.834751 9.104342 6.1691027
14.970513 16.573584 -14.86532 -5.124638 6.3613687 17.65663 -5.41262 1.3240182
-15.52977 4.9322963 31.10693 1.1670672 12.686268 34.13068 14.409844 15.539956
-16.40221 29.14101 -12.655883 48.338436 -16.536156 12.233145 4.7714734 -18.476389
54.993656 13.758692 15.539065 2.214479 -40.21789 41.468517 10.791628 -4.8138094
-0.8254949 9.877116 6.3220425 52.422035 2.9255633 -15.97057 -18.998602 -16.012383
12.867041 -4.811026 3.4524262 68.23318 40.08692 -12.709176 4.412382 72.883385
9.480824 3.3747506 30.252626 -22.370356 -20.878088 3.306607 46.854977 4.6604567
1.4957367 -23.754206 39.678043 34.106674 -24.528118 6.9604077 17.943592 -11.378369
5.310662 -8.726999 -16.093714 31.881866 32.3598 -14.64822 50.87445 5.1063023
-28.036713 -2.3529413 3.651834 -1.0586343 16.712822 10.094194 45.654797 -17.028051
5.3273005 16.706022 43.67364 -6.6277246 69.03603 12.5496235 15.280886 18.690004
48.432686 47.551846 -19.241886 3.6104956 3.0086434 -1.0030471 18.026869 -19.68403
-19.336319 30.81756 -13.846418 10.947631 27.148376 12.176832 32.538475 3.4407396
2.2873962 45.56827 -6.152778 -2.3111522 0.30358535 48.014782 -8.478061 26.732616

running_var f4 [128]
00000000: 7dcf 1943 b844 2e44 cee2 ca43 6e99 b643
00000010: 47e9 a142 62f3 8f43 9dc8 7643 93b3 ef43
00000020: 5019 8f43 c0a5 f442 fff9 9742 7fb3 4f41
00000030: 26db 5643 3ac1 6543 9960 0843 c4da 8543
00000040: 2b89 8042 5968 8943 8ad0 bf41 b0d8 a842
00000050: 271a 0243 b9f8 6043 44ac 2d43 13b3 9243
00000060: d6b8 ae43 9223 d242 ebb3 9443 2746 b142
00000070: 0060 7843 74d1 3843 8764 d843 35d2 4743
00000080: e499 c743 c6b8 0744 bd2d a042 f5e0 dd43
00000090: 8183 e541 70df 4843 0350 de42 ea4f 2042
000000a0: c03a 3b44 bcea da42 2930 0143 1a31 1f43
000000b0: b42c df43 8db7 a443 5505 4843 3e75 4d43
000000c0: 9238 7143 62aa 4f43 5c34 1d43 80fa fe43
000000d0: 710b 1642 9005 a841 a722 9a41 42f1 0542
000000e0: 4e04 2443 b5cd 1a43 3971 1e43 2151 1144
000000f0: baf0 0f44 8cff 9141 025e 6e43 4819 8644
00000100: 8a58 e942 3d8c 3143 6c05 8943 3ea3 0f44
00000110: e5d7 8543 1f2d 2f42 94da 1744 56d5 c042
00000120: 4357 9641 2d34 4244 bade 3344 230b 8743
00000130: d03b f443 7b6a 2843 4dd9 0143 2f59 9b41
00000140: 0ed3 b141 5e8e a543 84f4 9541 3c3a 1f44
00000150: 6496 b443 2d02 9f43 9830 4d44 eaf3 8c41
00000160: fc4d ff43 61e5 aa43 4645 8041 ed0b 7b43
00000170: 6a6b fe42 4d57 b442 a233 e343 5374 0c42
00000180: 326b 3e43 55c7 1343 7532 b943 407c 8e42
00000190: ee80 3844 29bb 2a43 7500 3143 5e07 6c43
000001a0: d804 8c43 4023 c243 089b 7543 1f2d ff42
000001b0: 0dc2 7c43 b63d 9a43 2215 8043 f9a4 3043
000001c0: 14b1 9341 57db 9943 5df8 1443 14a5 8a43
000001d0: 44ba dc43 55cb 4a43 5ad4 0244 2e41 f142
000001e0: db2d 9443 4c2c f143 9db0 8a43 e776 2142
000001f0: fe4a 8443 5c04 fc43 fa45 ef42 5af4 a143
153.8105 697.0737 405.7719 365.19867 80.95562 287.90143 246.78365 479.40292
286.19775 122.32373 75.98827 12.981322 214.85605 229.75479 136.37733 267.7091
64.26791 274.81522 23.976826 84.42322 130.10216 224.97157 173.67291 293.39902
349.44403 105.06947 297.4056 88.63702 248.375 184.81818 432.78537 199.82112
399.20227 542.8871 80.08933 443.75748 28.68921 200.8728 111.15627 40.07804
748.91797 109.458466 129.18813 159.1918 446.34924 329.434 200.02083 205.45798
241.22098 207.66556 157.20453 509.95703 37.511173 21.002716 19.26692 33.485603
164.01682 154.80354 158.44228 581.26764 575.76135 18.249779 238.36722 1072.79
116.67293 177.5478 274.04236 574.55066 267.68668 43.794064 607.4153 96.41667
18.792608 776.81525 719.4801 270.087 488.4673 168.41594 129.84883 19.418547
22.228054 331.11224 18.744392 636.9099 361.17493 318.017 820.7593 17.619099
510.60925 341.79202 16.033825 251.04659 127.20979 90.17051 454.40338 35.113598
190.41873 147.77864 370.3942 71.242676 738.0145 170.7311 177.00179 236.02878
280.03784 388.2754 245.60559 127.58813 252.75801 308.48212 256.1651 176.64442
18.461464 307.7136 148.97017 277.28967 441.4552 202.79427 523.318 120.627304
296.35825 482.34607 277.3798 40.366116 264.58588 504.03406 119.63667 323.909

weight f4 [128, 64, 2, 2]
00000000: b28f 853d a993 ed3e f837 5cbd 148a 51be
00000010: 5be9 05c0 e86d d5bd 68b5 1ec0 3e82 963d
00000020: 1c16 463e 219f 01bf b6b6 903e 2960 8bbd
00000030: e504 acbd eaec 06be 9ee0 14bf 3761 883e
00000040: 774a 0bbf 01a1 67bf b454 cabe 99c4 6d3c
00000050: 1959 c73e 3836 9ebf ae9d d6be 8f11 48bf
00000060: 2b0b 6abd 66cf 43be bba7 bf3c 6fef 91be
00000070: 863e 83be 317f 3abe 4cd6 823c c167 d2bc
00000080: d5bf f8bd fe51 06bf 82e2 ce3d f271 e5bc
00000090: bc66 bdbf c068 80bf 6a89 21bf 70c8 943d
000000a0: 9ea3 30bd db96 103e fc10 65bd 8517 11be
000000b0: 5d40 86bd ca10 7ebe 5d34 413f 3c6b cf3e
000000c0: 6a4e 55be 9679 f5be f398 b33e ee15 2fbe
000000d0: e1f6 1fc0 6e49 71bf 397e 03bf 7ca9 6a3e
000000e0: e2c8 aa3e 522a 0bbd 169d 393e 4b72 5fbd
000000f0: 3209 7bbe c557 50be 7b43 24be 9e95 8ebe
00000100: 59e6 efbe cb8b 0d3e e0ee 71be 4454 a2bf
00000110: e07a 17bd e351 af3e a655 2bbe 545f 90bd
00000120: ac45 1cbf d9ff 88be 4f53 9cbf aa71 3dbe
00000130: a575 33be 4515 b0be 90f2 b8bb 3598 dbbd
00000140: 3ef0 4ebe 8380 77be 5198 793e cd1d 263f
00000150: 642e aabd 2c45 d7be da91 b3be e4a1 b1be
00000160: d9f1 84be 26f4 38be ff78 b1be a9ac b23d
00000170: f977 aa3e ee07 80be f5e5 b9be 2bb6 0fbc
00000180: 7783 38bd 785a d03c 387b 8fbd 2984 2b3d
00000190: edd4 6d3d ebd2 903e 1bca 1ebe 259e 163e
000001a0: f446 0fbe e845 3fbe 26ec 77be 591c 013f
000001b0: 9a20 76bf 2988 903d 4d40 59be 21fc 7cbe
000001c0: 6ed9 e6be aa03 8a3e 0b37 0dbf 4bb5 bc3e
000001d0: 27bd 73bf aafd 99be 70e4 0dbf 91f5 293e
000001e0: fb98 51bf d3c6 e0bf 1951 21bf 6283 05bf
000001f0: 1494 18be c78a 9f3d 008a 26be c89b d33e
00000200: 0c5f 08bf 252a 913e cd41 ebbd d8ed 6cbe
00000210: a743 9fbe 9149 313e 135c 44be 7827 703e
00000220: 4c6a 19bf b575 9b3e 3f11 acbe 284f df3e
00000230: 3ca0 c2be c86c 55be 29f2 edbe 6f0a 88bd
00000240: 74f6 95bf 5c12 8b3e b3ce 7dbf 35e9 18bf
00000250: 3a4d 22bf 9622 57bf 79b0 70bf d0a7 c1bd
00000260: 85a2 38bf d0ca 143c 750f 5fbf 0a53 2bbd
00000270: c879 7dbe fddf e33d b24a ddbe 016b 1dbe
00000280: 809a a63e f535 32bd 866c cc3c c344 0ebe
00000290: d4fa 3c3e 514d 08be 9759 f33d 446d b8be
000002a0: 2e89 f73d 0daf 37bd 55d3 543d bd90 87be
000002b0: 51e1 3f3e 247a a6be dbfe b7be 7112 6ebe
000002c0: 0b8c 79bf 205e 9b3e a287 3b3f 83ae 4c3e
000002d0: ff41 9dbe 1c74 ccbc 3db6 0abf e5f1 84be
000002e0: 33dd b73e 70a7 b8bd 83c1 a63c 2945 3fbf
000002f0: 6feb ad3e 3bb7 64be 60c0 87bf 3146 b73c
00000300: 18f0 f3bb b14f 39bf f645 4bbf 8af6 8ebe
00000310: 37c0 92be e6d0 9ebe dfe5 dfbe 84a9 313c
00000320: 2e6a ca3e 9029 95bd b8b2 973d 4481 1dbf
00000330: 9506 fe3d 08af 7dbe c0c9 db3e 4e6b c7be
00000340: ec3c abbe 7235 1bbf 1d4e 5bbd 844c 2a3d
00000350: 7361 2ec0 a308 50c0 d842 c3bf 8ab1 a8bf
00000360: 5c2a b1be 2cd0 e2bb 4cdf a8be bbb1 4dbf
00000370: 812e c93e 9804 3c3e a3a8 3fbe 8b1c 56bd
00000380: 74e7 b7bd cf52 d5be 1c17 dfbe a847 64bf
00000390: b03e 8fbe 9589 8abe 85e7 bfbe f525 13bc
000003a0: 0f2b d2be 781d 353e 77cd 99be a092 6b3f
000003b0: 2671 d3bd d5da 9abe 71c1 69bf 905a d8bd
000003c0: 2f24 173e 7b48 46bf 2a94 ffbd dbfb 7cbe
000003d0: 8785 02bf f193 e5be 3387 6abe 666a 503e
000003e0: 381a 8e3e 4157 7bbf 5da5 543d 61dc 193f
000003f0: a3b0 6d3e 0670 0abf 2863 963e 7d6d 04bf
0.06521548 0.46401718 -0.053764313 -0.20462829 -2.092368 -0.104213536 -2.4798222 0.073490605
0.19344372 -0.50633436 0.28264397 -0.068054505 -0.08399371 -0.13176313 -0.5815524 0.2663667
-0.544105 -0.9048005 -0.39517748 0.014512205 0.38935164 -1.2360296 -0.41917175 -0.7815179
-0.057139557 -0.19122085 0.02339541 -0.28502986 -0.2563364 -0.18212582 0.015971325 -0.02568424
-0.12145964 -0.5246886 0.10101797 -0.028008435 -1.4796977 -1.0031967 -0.631003 0.07264793
-0.043124788 0.14120047 -0.0559244 -0.14169128 -0.06555245 -0.24811092 0.75470525 0.405115
-0.20830694 -0.47944325 0.35077628 -0.1709821 -2.4994433 -0.9425267 -0.51364475 0.22916216
0.33356386 -0.033975907 0.1812633 -0.054552358 -0.24515226 -0.20345981 -0.16041367 -0.27848524
-0.4685543 0.13822858 -0.2362628 -1.2681966 -0.036982417 0.34242162 -0.16731891 -0.070494324
-0.6104381 -0.26757696 -1.2212924 -0.1850039 -0.17525347 -0.34391227 -0.00564415 -0.107223906
-0.20208833 -0.24170117 0.2437451 0.6488922 -0.083096296 -0.4204496 -0.35072213 -0.34693825
-0.25965765 -0.18061885 -0.34662625 0.087243386 0.33294657 -0.2500605 -0.36308256 -0.00877146
-0.04504725 0.025433764 -0.07005924 0.041874085 0.05806439 0.28285918 -0.15506785 0.14708765
-0.1399191 -0.18679011 -0.24211177 0.5043388 -0.96143496 0.070572205 -0.21215935 -0.24705555
-0.4508776 0.2695592 -0.55162114 0.36857066 -0.952105 -0.30076343 -0.5542669 0.16597582
-0.81874055 -1.7560676 -0.6301437 -0.521536 -0.14900237 0.077901416 -0.1626358 0.4132979
-0.5327003 0.28352466 -0.1148716 -0.23137605 -0.31106302 0.1731322 -0.19175749 0.23452556
-0.5992782 0.3036324 -0.33606908 0.4361508 -0.38012874 -0.20842278 -0.46473816 -0.06642615
-1.1715837 0.27162445 -0.9914352 -0.59730846 -0.6339909 -0.8403715 -0.94019276 -0.09455836
-0.72122985 0.009081557 -0.8713296 -0.04182724 -0.24753487 0.11126707 -0.4322105 -0.1537285
0.3253975 -0.04350849 0.024954092 -0.13893418 0.18455058 -0.13310744 0.11882322 -0.36020863
0.12086712 -0.044844676 0.051959354 -0.26477614 0.18738295 -0.3251506 -0.35936627 -0.23249222
-0.97479314 0.3034525 0.73253834 0.19988446 -0.30714414 -0.024957709 -0.54184324 -0.259658
0.3591095 -0.09016311 0.020355945 -0.74714905 0.33968684 -0.22335522 -1.0605583 0.022372337
-0.007444393 -0.72387224 -0.79403627 -0.2792247 -0.28662273 -0.31018752 -0.43730065 0.010843638
0.39534134 -0.07283318 0.07407135 -0.6152537 0.12403599 -0.247738 0.4292736 -0.38949054
-0.33444917 -0.60628426 -0.05354129 0.041576877 -2.7246978 -3.2505271 -1.5254774 -1.3179181
-0.3460263 -0.0069217887 -0.32982862 -0.8034932 0.39293292 0.18361127 -0.18716674 -0.052273314
-0.08979693 -0.4166474 -0.4357232 -0.8917184 -0.27977514 -0.27058092 -0.37481323 -0.008981218
-0.41048476 0.17687023 -0.3003957 0.92020607 -0.10324316 -0.3024508 -0.91310793 -0.105641484
0.14759897 -0.77454346 -0.12479432 -0.2470545 -0.50984997 -0.44839433 -0.22903137 0.20353088
0.27754378 -0.98180014 0.051915515 0.60101897 0.23211913 -0.54077184 0.29372525 -0.51729566

weight f4 [64]
00000000: fe29 033f 86b7 9440 e959 c13c 55e8 833c
00000010: 94fe 633f 6a22 9a3f d028 573c fb99 63b9
00000020: 3c57 bc3d e875 fe3e 10e9 813e f65e 813e
00000030: 73df 933d cecc 0840 84b4 1a3e c35d ed3c
00000040: 9b06 803f fb9d 3e3e 99c2 d73f 15dc bd3f
00000050: 0157 b73f d776 913e 27d9 9e3c c2b2 c63d
00000060: 14bc fabb 81b9 423f bfd5 a83e f2cf d83f
00000070: 5555 283c 14a1 ca3f 62ea 8c40 cf4e a93c
00000080: 3c60 c93f 50ce 9dba 1f07 2e3c 11f6 e03d
00000090: 7305 cb3f 053d 9340 c55c 5b3f 232f d03e
000000a0: cac6 213e 2f9e a73e 28fb 253f 0f36 d23e
000000b0: 577d 883f f5ca ee3d 64f8 d63f 9259 653f
000000c0: fbd8 373e 7277 0e40 fd90 2c3e d5f2 533f
000000d0: e0fd 1140 5a15 9140 33f4 0c40 0af4 153f
000000e0: 3ecd 2340 a227 9f3a 96f8 dc3d 1c8f e53f
000000f0: c363 3a3e 9151 0a3f 0205 e83d 636c 3b3f
0.5123595 4.647403 0.023602443 0.016101995 0.8906033 1.2041752 0.013132289 -0.00021705769
0.09196326 0.4969933 0.25373125 0.25267762 0.07220354 2.1375003 0.15107924 0.028975373
1.0002016 0.18614952 1.6856261 1.4832789 1.4323426 0.2841098 0.019390656 0.09702064
-0.007651815 0.76064306 0.32975575 1.693846 0.010274251 1.5830407 4.403611 0.020667462
1.5732493 -0.0012039635 0.010621815 0.109844334 1.5861038 4.6011987 0.8568843 0.40660962
0.15798488 0.32737872 0.6483636 0.41056868 1.0663251 0.11659805 1.6794553 0.895898
0.17953865 2.2260404 0.16852184 0.8279241 2.2811203 4.5338564 2.2024047 0.585755
2.559402 0.0012142549 0.107896015 1.7934299 0.18202119 0.5403071 0.1132908 0.7321226

bias f4 [64]
00000000: 18c3 72bf f6ab adbf f714 e13f 2287 2f3e
00000010: fab5 84bf 8a46 b8bf bab0 1b41 cecb 683e
00000020: b4ec 993f f210 86bf 1677 f23e 399e 353e
00000030: 2d73 343e 66f8 62bf bbcf 9e3f f53e 95bc
00000040: 98bd 8cbf cd83 973e f170 28c0 8f98 62c0
00000050: 4b78 a0bf 20a5 b4bf 76ba 5a3d bc6b fa3d
00000060: 0fc7 833e d93c cd3f bf25 6f3a 07be 10bf
00000070: 5918 fb3e a72c f0bf af14 17c0 a509 053f
00000080: d52b 20c0 511a 203e c9cd cdbe 1a65 2c40
00000090: a09e ccbf 9bc4 f0bf e760 67be d45d a03e
000000a0: fc4a d13d f97d 5b40 8bee e73c 2472 c73e
000000b0: febe e1bf 429a b43f a528 10c0 734a 09c0
000000c0: 737f d83f 0dd3 61c0 590e 023f d70e 5dbf
000000d0: b781 7bc0 a419 0dc0 b51a 19c0 55d1 81bf
000000e0: 1905 31c0 7c2e fe3e 6d66 efbd 9a3b 0ec0
000000f0: 77d5 a73e 7845 a63e a2e4 ab40 e1a3 3dbf
-0.9482894 -1.3568103 1.7584523 0.17141393 -1.0368035 -1.4396527 9.730646 0.22733995
1.2025361 -1.0473921 0.4735648 0.17736138 0.17622061 -0.88660276 1.2407144 -0.018218497
-1.099536 0.29592744 -2.6318934 -3.5405614 -1.253671 -1.4112892 0.05340048 0.1222758
0.25737807 1.6034194 0.0009122751 -0.5653996 0.49042013 -1.8763627 -2.3606374 0.5196784
-2.5026753 0.15635039 -0.40196064 2.6936707 -1.5985909 -1.8809999 -0.22595559 0.31321585
0.1021938 3.4295638 0.028311988 0.3895427 -1.7636411 1.4109576 -2.2524807 -2.145169
1.6913894 -3.5285065 0.5080314 -0.8635077 -3.9297922 -2.20469 -2.392255 -1.0142008
-2.7659361 0.4964484 -0.11689458 -2.2223878 0.32780048 0.32474875 5.3716593 -0.74078184

running_mean f4 [64]
00000000: 3dac c4be ea8f 25c1 7c3e 8bbe cf68 87bf
00000010: 57d8 5bc1 a1c6 bec0 ddc0 5dc0 514f 32c0
00000020: 541e 52be 113c 1bc1 454d fe3d c3af 773f
00000030: 1691 13bf 4270 28c1 35d9 683e a5f8 c2c0
00000040: 51e5 3bc0 4084 3ebf d078 04c1 fa8f 943f
00000050: a6c4 f6bf d6d1 6cc0 5d29 89c0 8dfc 9ebe
00000060: fd0e 8cbf de13 b4bf 54e9 a4c0 1f9c f1c0
00000070: f08a 1c40 a6b9 5bc1 54e1 10c1 f347 aabf
00000080: 4252 ecc0 4bff 01bf cdee 41c0 b04c 22bf
00000090: 5fb9 9cc0 c3b3 ecc0 1fc4 26c1 5798 dbbf
000000a0: 7877 063f b890 3a3f 9cac 723f ccb7 8f3f
000000b0: 2c74 9cc0 b5be 1dbf 12fc eac0 86b1 06c0
000000c0: a9cc 7dbf 19d7 54c1 920f 21be e96c 05c1
000000d0: a6c1 74c0 4a79 50c1 dbbf e6c0 9979 90c0
000000e0: 3300 d8c0 aa22 4d3f c658 b5c0 4cb7 1cc1
000000f0: 9e5a 0fbd a170 36c0 a36f 82bf 74b7 5cc1
-0.38412657 -10.347635 -0.2719611 -1.057886 -13.740317 -5.9617467 -3.4648964 -2.786091
-0.20519382 -9.702165 0.12417082 0.96752566 -0.5764326 -10.527407 0.22739108 -6.092852
-2.9358714 -0.7442055 -8.279495 1.1606438 -1.9278762 -3.7003074 -4.286299 -0.31052056
-1.0942074 -1.4068563 -5.1534824 -7.5503078 2.44598 -13.732824 -9.055012 -1.3303207
-7.385041 -0.5078017 -3.0302002 -0.63398266 -4.8976283 -7.3969436 -10.422881 -1.7155865
0.52526045 0.72877073 0.9479463 1.1227965 -4.889181 -0.6161912 -7.3432703 -2.1045852
-0.9914041 -13.302514 -0.15728596 -8.339089 -3.8243194 -13.029612 -7.21092 -4.5148435
-6.7500243 0.8013102 -5.6670866 -9.79475 -0.03499853 -2.8506243 -1.0190319 -13.794788

running_var f4 [64]
00000000: 3602 0642 fd01 7d43 299c e740 91c1 9541
00000010: 766e 0043 80a2 ae42 9118 9042 b58a 8241
00000020: e72b 1e41 1ac7 a142 5bc1 9c41 9a0a 9941
00000030: f8c4 0741 3970 1944 a4a4 7841 f700 4342
00000040: 7375 6e42 bee2 7241 87ca 6e42 fd9d 9441
00000050: c711 3843 3f23 3641 e7ea c241 cdc2 2a41
00000060: 51c5 9541 b86b 0642 f6aa 3942 5615 d243
00000070: baf2 0a42 f9ab 8a42 b12c 0943 56eb dc41
00000080: 4076 fe41 27ac 2e41 9d1f 2841 ae9d 5941
00000090: bec5 9342 bc6e 0643 144a fe42 6b48 4b42
000000a0: f3b8 9c41 1b1a b041 eb82 8942 0b31 c141
000000b0: 321e 3a42 9a82 7941 15f8 8e42 7282 e941
000000c0: 21b9 8041 e4d4 0542 bf0b 6e41 0805 ad42
000000d0: 5c4b 7f41 5f48 7d43 3276 2042 c6f4 2142
000000e0: 4da2 6242 78d9 d141 fb0b 1342 93f3 8a42
000000f0: 4d30 5e41 883c 6d42 3a2b 9d41 ef7d 2243
33.50216 253.00777 7.2378125 18.719515 128.43149 87.31738 72.04798 16.317728
9.885718 80.88887 19.594412 19.130177 8.485588 613.7535 15.540195 48.750942
59.614697 15.180357 59.69778 18.577143 184.06944 11.383605 24.364698 10.672559
18.721346 33.605194 46.416954 420.1667 34.737038 69.335884 137.17458 27.61491
31.80774 10.917029 10.507718 13.600996 73.886215 134.43256 127.144684 50.82072
19.590307 22.012747 68.7557 24.148947 46.529488 15.594385 71.484535 29.188694
16.090395 33.4579 14.877868 86.50983 15.955898 253.2827 40.115425 40.489037
56.658497 26.231186 36.7617 69.47573 13.886792 59.309113 19.646107 162.49193
